…
_loss:.4f} | Val Acc: {val_accuracy:.2f}%\")\n\nmainNet.train()\nauxNet.train()","metadata":{"trusted":true,"execution":{"iopub.status.busy":"2025-04-23T15:04:15.018817Z","iopub.execute_input":"2025-04-23T15:04:15.019344Z","iopub.status.idle":"2025-04-23T15:04:31.562815Z","shell.execute_reply.started":"2025-04-23T15:04:15.019323Z","shell.execute_reply":"2025-04-23T15:04:31.562107Z"}},"outputs":[{"name":"stdout","text":"Val Loss: 2.6453 | Val Acc: 77.44%\n","output_type":"stream"},{"execution_count":35,"output_type":"execute_result","data":{"text/plain":"AuxNet(\n  (layers): ModuleList(\n    (0): Conv2d(3, 32, kernel_size=(4, 4), stride=(2, 2), padding=(1, 1))\n    (1): LeakyReLU(negative_slope=0.2)\n    (2): BatchNorm2d(32, eps=1e-05, momentum=0.1, affine=True, track_running_stats=True)\n    (3): Conv2d(32, 64, kernel_size=(4, 4), stride=(2, 2), padding=(1, 1))\n    (4): LeakyReLU(negative_slope=0.2)\n    (5): BatchNorm2d(64, eps=1e-05, momentum=0.1, affine=True, track_running_stats=True)\n    (6): Conv2d(64, 128, kernel_size=(4, 4), stride=(2, 2), padding=(1, 1))\n    (7): LeakyReLU(negative_slope=0.2)\n    (8): BatchNorm2d(128, eps=1e-05, momentum=0.1, affine=True, track_running_stats=True)\n    (9): Conv2d(128, 256, kernel_size=(4, 4), stride=(2, 2), padding=(1, 1))\n    (10): LeakyReLU(negative_slope=0.2)\n    (11): BatchNorm2d(256, eps=1e-05, momentum=0.1, affine=True, track_running_stats=True)\n    (12): Flatten(start_dim=1, end_dim=-1)\n    (13): Linear(in_features=16384, out_features=1024, bias=True)\n    (14): LeakyReLU(negative_slope=0.2)\n    (15): BatchNorm1d(1024, eps=1e-05, momentum=0.1, affine=True, track_running_stats=True)\n    (16): Linear(in_features=1024, out_features=1, bias=True)\n  )\n)"},"metadata":{}}],"execution_count":35},{"cell_type":"code","source":"torch.save(mainNet.state_dict(), \"main_net.pth\")","metadata":{"trusted":true,"execution":{"iopub.status.busy":"2025-04-23T15:04:42.464541Z","iopub.execute_input":"2025-04-23T15:04:42.464822Z","iopub.status.idle":"2025-04-23T15:04:42.613510Z","shell.execute_reply.started":"20
…
